…
        "model.add(Dense(1000, activation='relu'))\n",
        "model.add(Dropout(0.5))\n",
        "model.add(Dense(num_classes, activation='softmax'))\n",
        "model.summary()"
      ],
      "execution_count": 26,
      "outputs": [
        {
          "output_type": "stream",
          "text": [
            "Model: \"sequential_1\"\n",
            "_________________________________________________________________\n",
            "Layer (type)                 Output Shape              Param #   \n",
            "=================================================================\n",
            "conv2d_4 (Conv2D)            (None, 28, 28, 32)        832       \n",
            "_________________________________________________________________\n",
            "max_pooling2d_1 (MaxPooling2 (None, 14, 14, 32)        0         \n",
            "_________________________________________________________________\n",
            "conv2d_5 (Conv2D)            (None, 14, 14, 64)        8256      \n",
            "_________________________________________________________________\n",
            "max_pooling2d_2 (MaxPooling2 (None, 7, 7, 64)          0         \n",
            "_________________________________________________________________\n",
            "dropout_1 (Dropout)          (None, 7, 7, 64)          0         \n",
            "_________________________________________________________________\n",
            "flatten_1 (Flatten)          (None, 3136)              0         \n",
            "_________________________________________________________________\n",
            "dense_1 (Dense)              (None, 1000)              3137000   \n",
            "_________________________________________________________________\n",
            "dropout_2 (Dropout)          (None, 1000)              0         \n",
            "_________________________________________________________________\n",
            "dense_2 (Dense)              (None, 10)                10010     \n",
            "=================================================================\n",
            "Total params: 3,156,098\n",
            "Trainable params: 3,156,098\n",
            "Non-trainable params: 0\n",
            "_________________________________________________________________\n"
          ],
          "name": "stdout"
        }
      ]
    },
    {
      "cell_type": "code",
      "metadata": {
…
